…
  \n      3\n      1.109155\n      0.982513\n      0.684331\n      00:24\n    \n    \n      4\n      0.927408\n      0.845072\n      0.729682\n      00:24\n    \n  \n\n\n\nSo what is this option that is swinging our accuracy by 5%? It is an option that says whether we should start the second batchnorm layer (bn2) of our resnet model at 0 or at 1.\n\ndls = ImageDataLoaders.from_folder(data_path, valid='val', item_tfms=Resize(256))\nlearn_timm = vision_learner(dls, 'resnet18', pretrained=False, metrics=accuracy)\n\n\nlearn_timm.model[0].model.layer1\n\nSequential(\n  (0): BasicBlock(\n    (conv1): Conv2d(64, 64, kernel_size=(3, 3), stride=(1, 1), padding=(1, 1), bias=False)\n    (bn1): BatchNorm2d(64, eps=1e-05, momentum=0.1, affine=True, track_running_stats=True)\n    (act1): ReLU(inplace=True)\n    (conv2): Conv2d(64, 64, kernel_size=(3, 3), stride=(1, 1), padding=(1, 1), bias=False)\n    (bn2): BatchNorm2d(64, eps=1e-05, momentum=0.1, affine=True, track_running_stats=True)\n    (act2): ReLU(inplace=True)\n  )\n  (1): BasicBlock(\n    (conv1): Conv2d(64, 64, kernel_size=(3, 3), stride=(1, 1), padding=(1, 1), bias=False)\n    (bn1): BatchNorm2d(64, eps=1e-05, momentum=0.1, affine=True, track_running_stats=True)\n    (act1): ReLU(inplace=True)\n    (conv2): Conv2d(64, 64, kernel_size=(3, 3), stride=(1, 1), padding=(1, 1), bias=False)\n    (bn2): BatchNorm2d(64, eps=1e-05, momentum=0.1, affine=True, track_running_stats=True)\n    (act2): ReLU(inplace=True)\n  )\n)\n\n\n\nlearn_timm.model[0].model.layer1[0].bn2.weight\n\nParameter containing:\ntensor([0., 0., 0., 0., 0., 0., 0., 0., 0., 0., 0., 0., 0., 0., 0., 0., 0., 0., 0., 0., 0., 0., 0., 0.,\n        0., 0., 0., 0., 0., 0., 0., 0., 0., 0., 0., 0., 0., 0., 0., 0., 0., 0., 0., 0., 0., 0., 0., 0.,\n        0., 0., 0., 0., 0., 0., 0., 0., 0., 0., 0., 0., 0., 0., 0., 0.],\n       requires_grad=True)\n\n\n\ndls = ImageDataLoaders.from_folder(data_path, valid='val', item_tfms=Resize(256))\nlearn_torchvision = vision_learner(dls, resnet18, pretrained=False, metrics=accuracy)\n\n\nlearn_torchvision.model[0][4]\n\nSequential(\n  (0): BasicBlock(\n    (conv1): Conv2d(64, 64, kernel_size=(3, 3), stride=(1, 1), padding=(1, 1), bias=False)\n    (bn1): BatchNorm2d(64, eps=1e-05, momentum=0.1, affine=True, track_running_stats=True)\n    (relu): ReLU(inplace=True)\n    (conv2): Conv2d(64, 64, kernel_size=(3, 3), stride=(1, 1), padding=(1, 1), bias=False)\n    (bn2): BatchNorm2d(64, eps=1e-05, momentum=0.1, affine=True, track_running_stats=True)\n  )\n  (1): BasicBlock(\n    (conv1): Conv2d(64, 64, kernel_size=(3, 3), stride=(1, 1), padding=(1, 1), bias=False)\n    (bn1): BatchNorm2d(64, eps=1e-05, momentum=0.1, affine=True, track_running_stats=True)\n    (relu): ReLU(inplace=True)\n    (conv2): Conv2d(64, 64, kernel_size=(3, 3), stride=(1, 1), padding=(1, 1), bias=False)\n    (bn2): BatchNorm2d(64, eps=1e-05, momentum=0.1, affine=True, track_running_stats=True)\n  )\n)\n\n\n\nlearn_torchvision.model[0][4][0].bn2.weight\n\nParameter containing:\ntensor([1., 1., 1., 1., 1., 1., 1., 1., 1., 1., 1., 1., 1., 1., 1., 1., 1., 1.,\n        1., 1., 1., 1., 1., 1., 1., 1., 1., 1., 1., 1., 1., 1., 1., 1., 1., 1.,\n        1., 1., 1., 1., 1., 1., 1., 1., 1., 1., 1., 1., 1., 1., 1., 1., 1., 1.,\n        1., 1., 1., 1., 1., 1., 1., 1., 1., 1.], requires_grad=True)\n\n\nThe other thing that may catch your eye here is that timm has a second relu, but this is actually just a difference in torchvision using the same relu twice in the forward function so it doesn’t quite show the full picture."
…
